api/temp.pth (torch, 809194 bytes, 6 tensors)

fc1.weight f4 [256, 10]
000000 33 56 b6 3d 67 d4 81 be 23 95 bf 3b fc af b8 be
       0.0890316 -0.25357363 0.005846636 -0.36071765
000010 45 78 b3 3e 20 dc 83 3d 7e 50 a3 3d 86 84 c5 bc
       0.35052696 0.0643847 0.07974337 -0.024111044
000020 b9 c8 6a bf 94 31 e0 3c cb 19 db be cc b0 31 be
       -0.9171253 0.02736739 -0.42793116 -0.17352599
000030 2c bb b8 3c 37 4d 33 be 89 32 b9 be f8 90 43 bd
       0.022550188 -0.17509924 -0.36171368 -0.047745675
000040 2f a3 80 3e 5d bb 35 3e c2 b0 c6 3d 08 1f a2 be
       0.251245 0.17747255 0.097016826 -0.316643
000050 ff 6f 38 3a a4 bd b1 3c f4 c5 20 be f0 27 0d bf
       0.00070357317 0.021696873 -0.15700513 -0.55139065
000060 f1 6a f6 bc 18 e0 e6 3d 26 f2 89 bd de a3 3b 3e
       -0.03008029 0.11273211 -0.06735639 0.18324229
000070 ce 20 d5 3d c3 a1 a8 3d 8a d6 40 be 56 0d d8 bc
       0.104066476 0.082339786 -0.1883184 -0.026373547
000080 4a c3 ea 3d 27 ee c2 3e 05 c3 eb be ba f6 bd bd
       0.1146303 0.3807232 -0.46047226 -0.09275575
000090 92 3b 2a 3f 64 e0 fe 3e 61 77 1a be d9 b6 02 3e
       0.6649715 0.4978057 -0.15084602 0.12765063
0000a0 c0 a8 d5 bc 27 24 86 bd 76 1b 76 bb 93 6a 8a be
       -0.026081443 -0.06549864 -0.003755299 -0.27034435
0000b0 ad 03 cb 3d d6 8d d6 bd b5 00 03 3e 36 20 b8 3b
       0.099128105 -0.10476272 0.12793238 0.005619074
0000c0 b6 a3 d4 3d be 62 35 3d 2d 5c 1e be 11 85 78 3d
       0.10382788 0.04428362 -0.1546485 0.060673777
0000d0 b8 5e 83 bd 11 50 04 be ab 2c ec bb 3a 6d 09 be
       -0.064145505 -0.12921168 -0.0072074733 -0.13420573
0000e0 d5 fb 78 be 9f d5 3d be 5e 27 65 be ff 04 4e bb
       -0.24314816 -0.18538521 -0.22378299 -0.0031436083
0000f0 82 77 23 be 97 8d c9 3d bd 6d d6 3d f9 44 c4 3e
       -0.15963557 0.09841459 0.1047015 0.38333872
000100 ca cf 80 be 79 c0 15 bf 1c a6 1c 3f 52 e2 ba 3e
       -0.2515853 -0.58496815 0.6119096 0.36500794
000110 33 9e 97 be 0d 30 a1 bb 91 4c 90 3c a7 42 8e bd
       -0.29612884 -0.004919058 0.017614635 -0.06946307
000120 43 92 09 be fe f1 45 bf 32 84 7a 3e ae 76 30 3e
       -0.134347 -0.77322376 0.24464491 0.17232773
000130 f4 d9 09 3e fd e2 8b bc f7 48 8b bd 6d 08 5a 3e
       0.13462049 -0.01707601 -0.06801026 0.21292277
000140 85 a7 d9 bd 77 d6 52 3e 8c 84 73 be 6d c9 ec be
       -0.10627655 0.20589624 -0.23781031 -0.46247426
000150 a0 84 88 bd 36 0e 19 3e 20 8e 34 3e fd 6c 41 3d
       -0.06665921 0.14946827 0.17632341 0.04722308
000160 74 c9 0e 3d 57 31 72 bd 51 17 14 be 7d bb 79 3e
       0.03486009 -0.059129085 -0.1446202 0.24387927
000170 82 39 b2 3c d2 43 41 3e 5c ce 53 bf 52 6d a4 3d
       0.021755937 0.18873528 -0.82736754 0.08028664
000180 71 e6 09 3f 77 1a b0 3d 2f 3e 55 3d f2 a2 64 be
       0.5386725 0.08598798 0.052061256 -0.22327784
000190 5d fc 1a be d0 7c 68 bd 6e bf c9 3d 46 27 15 3f
       -0.15135331 -0.056759655 0.098509654 0.5826305
0001a0 61 0b 4a be 2a ea 3c bd df c3 19 3f f9 1a a9 be
       -0.19730903 -0.046121754 0.600645 -0.3302839
0001b0 36 76 a3 3d 48 20 eb 3e e5 94 06 3c d2 e0 94 3d
       0.07981531 0.45923066 0.00821421 0.072694436
0001c0 74 22 f6 bd 02 de c0 be 63 ce 03 bd c4 1a b2 3e
       -0.1201829 -0.3766938 -0.032179248 0.34786046
0001d0 39 b7 34 3e 63 e2 0d be 60 da 13 be 17 74 50 be
       0.17648019 -0.13855891 -0.14438772 -0.20356785
0001e0 43 bd 9f bd f6 00 b0 be 36 07 e3 3d 4a 5f e4 3e
       -0.07799771 -0.34375733 0.1108536 0.4460395
0001f0 c6 9c 79 be 0f 52 a8 be 08 06 a8 bc af 8e b1 3d
       -0.2437621 -0.32875106 -0.020510688 0.08669793
000200 79 a6 10 be 7b 3d 6d be 02 03 2e 3d 9d 9d 85 3d
       -0.14126004 -0.23167984 0.042483337 0.06524203
000210 66 7b 2b be d8 6c 07 bf 38 52 6d bd 3b 1e 01 be
       -0.16746292 -0.5290046 -0.057939738 -0.12609188
000220 a6 f7 db be 6c 78 81 3d 00 51 16 3e ba 88 1a 3e
       -0.42962378 0.06321797 0.14679337 0.1509122
000230 33 d5 45 bc 6d 4e 54 be 91 38 b7 3d fa d6 cb be
       -0.012074756 -0.20733042 0.08946336 -0.39812452
000240 09 8b 5c 3e 1e b4 ea bb ec b4 cb be a0 d3 ae be
       0.21537413 -0.007162585 -0.3978647 -0.34145832
000250 ac 5a 28 3d fe 7a f8 be c6 e2 bf 3d 22 80 d3 be
       0.041102096 -0.48531336 0.093694255 -0.41308695
000260 c0 7b 8b bd 78 2f 06 3e e3 43 ae bd ab 59 a7 be
       -0.06810713 0.13104045 -0.08509042 -0.326856
000270 e0 5c ac be 76 11 23 3e 21 3c 50 bd 3a 11 85 bd
       -0.33664608 0.1592463 -0.050838593 -0.06497426
000280 3d 19 41 be ae f0 ae 3e 24 af 03 3d 5b 28 9d bf
       -0.18857284 0.34168 0.03214945 -1.227794
000290 27 c2 b3 3e 3f 75 df 3c 0c e2 db be 1c 2c 88 bd
       0.35109064 0.027277587 -0.42945898 -0.06649038
0002a0 4a 19 fa bd cb db 17 bf 4d 41 68 3c ac 1a 4d 3d
       -0.12211855 -0.5931975 0.014175725 0.050074264
0002b0 1d 76 42 be b6 00 cf be 9f 2c 03 3d 0d 90 c7 bb
       -0.18990369 -0.4043023 0.032024976 -0.0060901702
0002c0 44 5d 1e 3e 0a 7d 95 be d9 60 d9 bd 39 a5 10 be
       0.15465266 -0.2919696 -0.10614175 -0.14125527
0002d0 92 b4 dc bc 5d 25 84 3e 4d cf d4 3c 6f 70 a6 be
       -0.026941571 0.25809756 0.025977755 -0.32507655
0002e0 8f 71 7b 3d d7 50 bd 3e 69 8a 9e be a1 c3 14 be
       0.061387595 0.36975738 -0.30964974 -0.14527752
0002f0 82 e9 3f 3e 40 39 88 be 31 24 1e be 33 ce 17 3e
       0.1874142 -0.26606178 -0.15443493 0.14824753
000300 29 3b cd bc a7 e3 90 3e 28 1f 60 3d e0 3e 89 3e
       -0.025052624 0.28298685 0.054717213 0.26805782
000310 8d 02 37 be 5b ab 10 3e 66 b8 84 3d 4f e9 2c 3e
       -0.17872067 0.14127867 0.06480484 0.16885875
000320 b0 08 32 3d aa 7f e9 bd b0 47 dd 3d c4 a9 da 3d
       0.043465316 -0.11401303 0.10804689 0.106769115
000330 d0 ac cc be 3a 5d 3c be 06 04 06 3e 80 e1 75 3e
       -0.39975595 -0.18394938 0.13087472 0.24011803
000340 03 25 df 3d 34 29 62 3e 8d a1 16 3e 62 1c 88 be
       0.10895731 0.2208603 0.14710064 -0.26584154
000350 e6 35 45 be a2 15 c1 bd 9d 9f 3f 3c 07 df 93 3e
       -0.19258842 -0.09427954 0.01169577 0.28881094
000360 07 f7 1f 3e 1f f8 51 be db 66 2f 3e 4e 88 00 be
       0.15621577 -0.20504807 0.1712908 -0.12551996
000370 b7 3d cc bd f1 62 fb bc 14 1f 9b ba 1d da 55 3e
       -0.09972709 -0.030686827 -0.0011834824 0.20883985
000380 a6 d0 a3 be 23 d7 61 bd 80 fd 63 3e 3b 95 83 be
       -0.31995124 -0.05513681 0.22264671 -0.2569979
000390 12 52 e1 3d 97 b7 99 3e d0 d4 b1 3c db 4a 56 3e
       0.11001982 0.3002288 0.021707922 0.20926993
0003a0 40 c1 7a bb 38 86 37 bf 89 af 49 3e 14 5f bb bd
       -0.0038262159 -0.71689177 0.19695868 -0.09148994
0003b0 37 62 81 be b5 c9 94 be 65 57 ae be ec de 40 be
       -0.25270244 -0.2906014 -0.34051052 -0.18835038
0003c0 46 b2 95 3d 6b 4d 3e be 9f 13 48 3d d3 ab 3c 3e
       0.073093936 -0.1858422 0.048846837 0.1842492
0003d0 c4 f5 06 bf ad c5 9f bd 20 d8 ad 3e 59 69 33 3e
       -0.5271876 -0.078013755 0.33953953 0.17520656
0003e0 02 c6 81 3e 8f f4 61 be 8d 08 ab 3c 34 09 42 be
       0.2534638 -0.22065948 0.0208781 -0.18948823
0003f0 06 04 0d 3e 65 7b b0 3e b5 15 cb be 19 c9 3a be
       0.13771066 0.34469143 -0.39665 -0.18240775

fc1.bias f4 [256]
000000 f0 da 62 be 13 47 ad be 79 80 ab 3e 97 00 0f 3e
       -0.2215383 -0.33843288 0.33496454 0.13965069
000010 d3 b0 96 3d b4 e1 f7 bd 95 ea ca 3d d5 ff 9a 3e
       0.07357945 -0.12103596 0.09908024 0.3027331
000020 c2 be bb 3e a0 9c 65 be fd 5d dd bd 4a 2c 6b ba
       0.36668974 -0.22423029 -0.108089425 -0.0008971138
000030 c3 a5 36 be e3 b6 1c be 22 e4 3b be eb de bc 3d
       -0.1783667 -0.15304141 -0.18348745 0.09222206
000040 7b 76 a6 3e 0c 65 69 3e e1 3c 03 3d b9 d8 7d 3e
       0.32512268 0.22792453 0.03204048 0.24789704
000050 bf 4f b4 bd 3b fd 16 3e cf c6 98 be 22 41 8c be
       -0.08804273 0.14745037 -0.2983918 -0.27393442
000060 57 f9 47 be 05 3f 37 3e ad 05 ce be c6 49 9f 3e
       -0.1952871 0.17895134 -0.40238705 0.31110972
000070 71 22 ab bd 5c e9 a2 bd 13 59 66 3c 83 d3 38 bb
       -0.083561786 -0.07954666 0.014059323 -0.0028202243
000080 7d 9b 10 be 3a 84 99 3e 82 9e fb 3d dd 37 83 3e
       -0.14121814 0.29983693 0.12286092 0.25628558
000090 97 04 bc be 1a 43 40 be 47 d2 a4 3c c4 ce c4 bd
       -0.36722252 -0.18775597 0.0201198 -0.0960975
0000a0 9c 66 87 be 37 54 ec bd c7 6d 86 bd f2 42 10 be
       -0.26445472 -0.115395 -0.06563907 -0.14088038
0000b0 44 1a a0 be 1e d1 67 3d 89 a5 e6 3c 32 89 a0 be
       -0.3127004 0.056595914 0.028155105 -0.31354672
0000c0 83 57 df 3d 89 d7 1a 3e 20 43 a0 3e 9a c0 07 bd
       0.109053634 0.15121283 0.31301212 -0.033142664
0000d0 a9 40 ad be bf 52 19 3c e4 1f a8 be 19 6f d8 3d
       -0.33838394 0.009358107 -0.3283683 0.10568065
0000e0 e5 97 9c 3e 4c 14 c2 bd b4 75 83 bc 20 0b 01 3e
       0.30584636 -0.094765276 -0.016047336 0.126019
0000f0 10 0c 20 3e 19 43 5b be 5f 0b 69 be 56 45 d5 3d
       0.15629601 -0.21412314 -0.22758244 0.104136154
000100 e5 79 e1 3d ae a7 9d 3e 94 a6 b3 be da df 2a be
       0.11009578 0.30791992 -0.35088027 -0.16686955
000110 15 11 55 bb 9e 69 c7 be be c4 b2 be 4e fb 9c 3d
       -0.0032511402 -0.38947767 -0.34915727 0.0766512
000120 33 2a c5 bd a6 4c 0d 3e 62 6d 28 3d 8e a2 fd be
       -0.096271895 0.1379877 0.04111994 -0.49538082
000130 5a 25 eb bd 74 90 1f bc 28 1e 14 3e 53 50 9d 3e
       -0.114817336 -0.00973903 0.14464629 0.30725345
000140 5e e6 00 bb a2 ca de be 71 cd 7a be 41 1c 5b 3e
       -0.001966856 -0.43513972 -0.24492432 0.21397497
000150 88 95 d2 bc 09 f0 35 3e 07 83 f5 bd 4e 89 34 3e
       -0.025706068 0.17767347 -0.11987882 0.17630503
000160 da f2 cc bd 61 ec 92 be 7e f2 5b 3e 64 71 95 be
       -0.10007258 -0.28695968 0.21479222 -0.29188073
000170 1e 58 90 be d3 25 55 be 32 37 a1 3e 9b 7b 5b 3c
       -0.28192228 -0.2081521 0.31487423 0.013396169
000180 a8 c0 0d be e3 10 8e be 60 c3 da 3d cb fc 8c be
       -0.13843024 -0.2774726 0.10681796 -0.27536616
000190 29 4f 85 3e d9 02 60 be 66 a6 98 bd ea 43 65 3e
       0.26036957 -0.21876086 -0.07453613 0.22389188
0001a0 63 ca f1 bc 04 d6 bf 3e d4 3f 17 be 90 1b e5 be
       -0.02951545 0.37467968 -0.14770442 -0.4474759
0001b0 fe 03 39 3d 5d 67 d7 bd 2c 8b 00 bd 61 32 33 3e
       0.045169823 -0.10517762 -0.031382725 0.17499687
0001c0 20 06 82 3e 0a 6f 8a be 72 2a 61 be fd 4e d6 bd
       0.25395298 -0.2703784 -0.21988848 -0.104642846
0001d0 6a 96 54 bc a4 55 0e 39 d2 41 54 3e 78 f1 cb be
       -0.012975315 0.00013574079 0.20728233 -0.39832664
0001e0 81 38 c1 bd 59 c9 80 3d 3f bf 90 be be 86 3a bd
       -0.094346054 0.06288404 -0.2827091 -0.045538656
0001f0 83 cb 97 3e d2 77 57 3b 81 de 98 bb 19 dc 87 3e
       0.29647455 0.0032877815 -0.0046651964 0.2653511
000200 ec 5f 71 3e 48 15 c7 be 70 a9 7b 3c b0 57 a3 be
       0.23571748 -0.38883424 0.015360221 -0.31902838
000210 54 ee c6 bd 04 af ff bd eb 7b 74 be 57 33 61 3e
       -0.09713426 -0.124845535 -0.23875396 0.21992241
000220 15 cb 4f bd 1a 0c 82 3d d2 5a 88 bd b3 ba 87 be
       -0.050730783 0.063499644 -0.066579476 -0.26509628
000230 7b cb 8c bd bd 07 a5 be cf cd cb 3e 68 dc 0c 3c
       -0.06874748 -0.32232466 0.39805457 0.008597471
000240 8b 2a 4d be 89 a7 c1 be 51 77 c3 3d 91 d1 77 be
       -0.2003576 -0.37823132 0.09544242 -0.24201037
000250 d5 2d ae be f6 61 b8 be 42 47 c4 bb 8c d8 76 3e
       -0.34019342 -0.36012238 -0.00598994 0.24106044
000260 84 77 90 bd 5d 11 b5 be 86 22 bd 3e c8 aa 97 be
       -0.07054046 -0.3536481 0.36940402 -0.29622483
000270 f1 0b 26 be 4b 1f c9 bc 32 35 2c be f6 84 fc 3d
       -0.16215493 -0.024551054 -0.16817167 0.12330048
000280 e0 d6 89 be ce 52 81 3d 73 53 9e 3e 30 d5 d3 3d
       -0.2692175 0.06314622 0.30923042 0.10343397
000290 36 ec 11 be ad 4a 3c be f8 dd 8e be ce 73 bf bd
       -0.14250264 -0.18387862 -0.27903724 -0.0934826
0002a0 de 59 3e 3e df 0b 72 be 34 78 7b 3d 52 c6 e3 bd
       0.18588969 -0.23637341 0.06139393 -0.11121811
0002b0 d8 1d b4 bd 66 7d 8c 3e 31 c5 ad 3e c6 4a 45 3e
       -0.08794755 0.2743942 0.33939508 0.19266805
0002c0 40 6f 5a 3e 09 3b 44 bd d2 6f 60 3d ae 97 19 be
       0.21331501 -0.047907863 0.05479414 -0.14999267
0002d0 e3 d6 8b bd eb 02 be be e6 32 87 3d 44 65 82 bd
       -0.06828096 -0.371116 0.06601505 -0.06366971
0002e0 b7 89 a3 3d a2 83 5d 3e 6f 19 8b 3d 97 b1 cd 3e
       0.079852514 0.21632245 0.067919604 0.40174553
0002f0 00 23 cb 3d 68 4e 7a be 7a f4 14 be 0e 49 8b be
       0.09918785 -0.24443972 -0.14546385 -0.27204174
000300 31 8b 94 be fc 73 fb bc 38 84 02 3e 3c 1f df be
       -0.29012445 -0.030694954 0.1274575 -0.43578517
000310 24 a5 57 be 47 81 cc bc 6f 99 c6 bc 3f bf 9d be
       -0.2105909 -0.024963988 -0.024243085 -0.30809972
000320 12 85 36 3d d6 bb cb bd c9 5d 4b bd a2 41 22 be
       0.0445605 -0.09947936 -0.049649987 -0.1584535
000330 b9 6b 93 3e 18 15 89 be 6e d2 63 be 3f 07 89 3e
       0.28793123 -0.26773906 -0.22248241 0.2676334
000340 7a cd 8d be 6c d0 59 be 35 01 81 be 51 8c e2 be
       -0.2769583 -0.21270913 -0.25196233 -0.44247678
000350 e0 20 cf 3e 8a b0 9d be aa 41 22 be 48 7d 7f 3e
       0.4045477 -0.3079875 -0.15845361 0.24950135
000360 d7 d0 be bd 27 bc 5a 3e c1 01 ce be 45 43 01 3e
       -0.09317177 0.21360837 -0.40235713 0.12623318
000370 28 64 18 3e 78 0b 61 3e a7 d6 b5 3d b4 2a 23 be
       0.14881957 0.21977031 0.08878832 -0.15934259
000380 de c3 1e be a6 14 b1 3b bd 2b 84 3d 58 a5 a5 3e
       -0.15504405 0.005404073 0.06453655 0.3235271
000390 50 92 aa 3d a9 27 41 3d 63 1b 40 be d8 1e d0 bd
       0.08328688 0.047156963 -0.18760447 -0.10162133
0003a0 67 41 ac be b1 20 ce 3d d4 45 6d be 20 bf dc bd
       -0.33643648 0.10064829 -0.23171169 -0.10778642
0003b0 3c 20 e1 bd 77 70 a2 3e 52 20 a8 3e 4d 68 07 bf
       -0.10992476 0.3172643 0.32837158 -0.52893525
0003c0 49 30 0b 3e 24 42 99 be b9 72 86 be 9a 32 79 3d
       0.13592638 -0.29933274 -0.262594 0.060839273
0003d0 cd 40 52 be 94 6d 7a be eb a0 5e be db 77 90 3e
       -0.20532532 -0.24455863 -0.21741073 0.28216442
0003e0 c5 87 f7 bc 34 e7 52 3e 4a 7f 37 3e ee 98 d2 be
       -0.030216107 0.2059601 0.1791965 -0.411323
0003f0 c4 7a fd bd f4 c6 b0 be b8 98 03 3e 62 19 0e 3d
       -0.12376931 -0.3452679 0.12851226 0.034692176

fc2.weight f4 [768, 256]
000000 91 86 55 bd c3 15 2e 3c ba db f1 bb ba 9d 80 bd
       -0.052130286 0.010625306 -0.00738093 -0.06280084
000010 c2 03 1f 3d be 74 af bc a1 3e 40 bd 3b 66 87 bc
       0.038821943 -0.021417972 -0.046934728 -0.01652824
000020 58 77 3f 3d a5 62 4c 3b e5 ed e3 bc ec 89 37 bd
       0.046744674 0.0031186726 -0.027823398 -0.044809267
000030 5c 27 2c bc 5e a1 99 3c 23 2d c0 3c 47 7d 4d bd
       -0.010507431 0.018753704 0.023459023 -0.050168302
000040 36 ab 0f bd 9e 7e 33 bd 03 ac 91 3b 51 de 35 bd
       -0.03507539 -0.043821923 0.004445554 -0.04440147
000050 27 63 e5 bc 2e 25 b2 bc 8e 96 ad bc ff 9d d7 3c
       -0.028001381 -0.021746244 -0.021189954 0.026320456
000060 82 6e f9 bb 62 56 4e bd 05 4d 8d 3c d4 83 08 3d
       -0.0076120505 -0.05037535 0.01724864 0.033328846
000070 14 6b 0e bd 7f 6b 13 bd 91 de 3e bd a2 c8 0d 3d
       -0.034770086 -0.03599119 -0.046598975 0.034615166
000080 b1 d9 ca 3a 84 66 be bb 5b 90 bb 3b 43 7b af bc
       0.0015476254 -0.0058105607 0.0057239956 -0.02142108
000090 a3 36 5e bd 9a a6 25 bc 8a 02 4c bd 6b 73 e7 3c
       -0.054251324 -0.010110522 -0.04980711 0.028253278
0000a0 d5 bb 71 bb b9 1b 12 3d d0 90 0f bd 4a 28 32 3d
       -0.0036885638 0.03567097 -0.035050213 0.043495454
0000b0 fe 7c 09 3d a6 84 f6 3c 5d 7a 24 bd 2d 9b c4 bb
       0.033566467 0.030092549 -0.040155757 -0.0059999437
0000c0 f5 97 2e bc 06 e3 18 3c 5a 70 17 bc b5 7b 66 bb
       -0.010656347 0.00933147 -0.009243095 -0.003516895
0000d0 30 93 00 3d b9 57 38 bd 6f 7c c5 3c 21 60 9c bc
       0.03139037 -0.045005534 0.024107186 -0.019088807
0000e0 29 26 ed bb 85 bc bb 3b d1 ec 83 3b 49 b0 31 bd
       -0.007237215 0.0057292604 0.0040260334 -0.04338101
0000f0 f1 24 48 3d 9f 35 cc 3c 6a 4c 2d bd 90 79 ab 3c
       0.048863355 0.024927912 -0.042309202 0.020931989
000100 70 74 de 3c c5 16 40 bd 96 4f 9c 3c 8b c7 15 3d
       0.027155131 -0.046896715 0.019080918 0.036567252
000110 15 f8 05 3d 6d f6 46 3c 3c 68 fe bc ad b7 f4 bc
       0.032707293 0.012143713 -0.031055562 -0.02987274
000120 c4 87 0f 3b 2f 9c 38 bd a3 92 da 3c f1 44 43 3d
       0.002190099 -0.045070823 0.02668125 0.04767317
000130 ac b7 5b 3c f7 d0 0e bd 5f f8 0d bc 75 78 95 bc
       0.01341049 -0.034867253 -0.008665173 -0.018245915
000140 fc 16 51 3d 62 8e 81 bb e2 5c 1a 3d 29 b1 9e 3c
       0.05104731 -0.003953741 0.037686236 0.019371586
000150 bf 66 0a bd c9 79 14 bd 62 10 3e bd a4 88 cf ba
       -0.033789393 -0.036248956 -0.046402343 -0.0015833569
000160 ae ad ba 3c 8d 3e 56 3c 8c b1 5d bc b4 a4 23 bd
       0.022787895 0.013076437 -0.0135311 -0.039951995
000170 9f 1e 49 bd 84 4e 30 3c 8d 2c 52 bd 61 6e 0d 3d
       -0.04910147 0.010760907 -0.05131202 0.034529094
000180 7e 02 b2 bc 2c 05 c3 bb 19 49 06 3c f9 d3 79 bd
       -0.021729704 -0.0059515443 0.008196139 -0.06099317
000190 8d 1c 87 bd 3f 43 0c bd 63 d5 69 bd 3f 79 49 bd
       -0.065972425 -0.03424382 -0.057088267 -0.049187895
0001a0 4c 8c 4a bd d2 06 18 bd 5a 4e af bc a7 62 2c bd
       -0.049450204 -0.03711588 -0.021399666 -0.04208627
0001b0 1d b1 f6 bc b0 63 6c bd 0d 71 32 bc a0 fd 0b 3d
       -0.030113751 -0.057712257 -0.010891211 0.034177423
0001c0 90 2a 39 bd 36 58 50 3d e1 6c e4 ba b6 ea 50 3d
       -0.045206606 0.050865375 -0.0017427468 0.051005088
0001d0 8a a5 06 3d 71 28 0c 3c 89 fa 8c bc f6 73 48 3c
       0.032872714 0.008554564 -0.017209308 0.0122346785
0001e0 03 cd a1 3a b2 57 2b bc a3 f9 2c bc db 60 d7 3c
       0.0012344423 -0.01045792 -0.010557565 0.026291301
0001f0 cb 8f 24 bd d6 48 6e bd 4e 06 9a 3c 5d 30 a6 3a
       -0.040176194 -0.05817493 0.018801834 0.0012679208
000200 4d 31 0d bd 66 c8 7a bd fc 29 3d bb d8 dc cc 3c
       -0.034470845 -0.06122627 -0.0028864136 0.02500765
000210 cd 46 78 3b 7b fa 93 bc 99 0c b1 bb f6 2e 06 3c
       0.0037883997 -0.018063774 -0.005403113 0.008189907
000220 37 8c 0f bc 7f 7d c1 3c f5 ad 2b 3d cb d8 3c bd
       -0.008761457 0.023619412 0.041913945 -0.046105187
000230 6f d9 37 bc c1 76 1c 3c ff 9b 2e bc f0 1b 85 3a
       -0.011221274 0.0095497975 -0.01065731 0.0010155421
000240 bf 21 24 bd 61 26 1b 3d 81 d4 81 bd 8b dd 9d bc
       -0.040071245 0.037878398 -0.0633936 -0.019270679
000250 ef 75 b0 3c bc eb 09 3d 2c 53 39 3d b0 06 5c bc
       0.02154061 0.03367208 0.045245335 -0.013429329
000260 21 df 95 bc c2 e0 86 bd 6d a8 f2 bb a0 92 34 3c
       -0.018294873 -0.06585838 -0.007405332 0.011021286
000270 f3 ca e3 3c 16 47 8a bd 60 79 b9 3c 3b cf b6 bc
       0.027806735 -0.0675184 0.022640884 -0.022315612
000280 ea 77 cb bc 1a 5a 24 3b 96 2d 06 3c 3e c7 e9 3c
       -0.024837453 0.0025078119 0.0081895795 0.028537389
000290 ec 0a 8b bd e8 e3 a6 3b e0 2c 35 3d 7c 30 18 bc
       -0.067891926 0.0050930865 0.04423225 -0.009288903
0002a0 20 6d b1 3b e1 2f 92 3c 1b b0 5d 3a 53 b3 15 3b
       0.00541462 0.017845096 0.0008456723 0.0022842481
0002b0 e4 f8 05 3d 9b c8 d4 bc 39 1c 52 bd 01 04 33 bc
       0.032708064 -0.025974562 -0.051296446 -0.010926248
0002c0 57 f9 2a bd 15 e7 4a 3c 5e ae ba bc a2 56 a0 3b
       -0.041741695 0.012384196 -0.022788223 0.00489314
0002d0 5e f1 9b 3c ab ca 1a bd e4 86 60 bd c9 3c 57 bd
       0.019035991 -0.037790935 -0.05481614 -0.052548204
0002e0 49 c2 85 3b 69 d2 3e 3d 47 23 23 3b dd a3 e4 bc
       0.0040819985 0.04658738 0.0024892853 -0.027910167
0002f0 93 b2 c1 bc d7 91 35 bd 24 4f 45 bd 22 b5 02 bd
       -0.023644721 -0.044328537 -0.048171178 -0.031911023
000300 b3 ed 36 bd ea c1 00 3d 2f 0c be 3a f0 53 27 3d
       -0.04466028 0.03143493 0.0014499481 0.040851533
000310 9f dc 4a bd be 38 ce 3c 7d de c3 bc 0f 6b 52 3c
       -0.049526807 0.025173541 -0.023909802 0.012842908
000320 03 5f 2c bd 77 b9 1c bd 6b 1e 14 bc 7c 51 30 bc
       -0.042082798 -0.03826281 -0.009040455 -0.010761615
000330 c8 58 2d 3d 16 4d 47 3d c4 b7 1f bd 5f 1d a7 bb
       0.042320997 0.0486575 -0.038993612 -0.005099937
000340 c0 2a 37 bd b9 6b 94 b9 6c 28 cb 3c aa c9 71 bc
       -0.044718504 -0.0002830902 0.024799548 -0.014757553
000350 e9 68 69 bc 95 8c a2 3c ea cb c8 3c e7 b5 47 3d
       -0.014246204 0.019842425 0.024511296 0.04875746
000360 c4 8d 9e bc 09 ae 55 3c 20 28 70 3c fe d0 31 bd
       -0.019354708 0.0130419815 0.014658004 -0.0434122
000370 9a 1d 55 3c 3d 59 87 bc 1a ba 0b 3d 0f a2 1e bd
       0.013007546 -0.016522044 0.034113027 -0.03872877
000380 98 5f e1 3c 97 26 c7 3c 9d 0b 41 3c d7 8d ec 3b
       0.027511403 0.024310393 0.011782554 0.007219057
000390 8a a6 7f bd d7 a4 45 bd 29 01 cd bc 44 f9 4d bc
       -0.062414683 -0.048252907 -0.025024967 -0.012571637
0003a0 6e 33 70 bd 79 80 9f 3c a6 16 1c 3d 7e f6 ed 3b
       -0.058642797 0.01947044 0.038107537 0.00726205
0003b0 d6 59 46 bd 5c c0 12 3b 8a 56 5a 3b 30 ec 5d bc
       -0.048425518 0.0022392487 0.0033315741 -0.013545081
0003c0 55 26 1b bc 91 48 19 bb 4f 31 16 bd af 95 f4 bc
       -0.009469588 -0.00233892 -0.036668118 -0.029856531
0003d0 8d 1b d4 3b 14 29 41 bd cf 3e fe 3c b0 3d af 3c
       0.006473011 -0.047158316 0.031035809 0.02139172
0003e0 96 d3 06 bd 18 c3 f0 3c c9 28 d9 3c d0 ae 38 3c
       -0.032916628 0.029389903 0.026508706 0.011272147
0003f0 77 cd c4 3c 34 45 2b bc e3 84 88 bc 18 ed ae bc
       0.024023755 -0.010453511 -0.016664928 -0.02135329

fc2.bias f4 [768]
000000 9b a8 8b bd b3 67 0e bd 16 73 80 bd 17 cf 58 be
       -0.06819268 -0.034766864 -0.06271951 -0.21172749
000010 f3 f5 0d bd 2e 3a 8d bd 46 f6 cb 3c 3b 13 40 bd
       -0.034658384 -0.068958625 0.024897706 -0.04689334
000020 b8 71 97 3c 4f 73 40 bd 39 1c 1b bd bb ba 2e bd
       0.018486843 -0.046984967 -0.037868712 -0.04265855
000030 b2 49 5c bd 1f 7f 9e ba 15 6d b8 bc 80 6d 94 bc
       -0.05378122 -0.0012092328 -0.022512952 -0.01811862
000040 af 20 ba bc 30 69 90 bd 79 2f 59 bd e4 1f ef 3c
       -0.022720663 -0.07051313 -0.05302379 0.029190011
000050 6a c4 8c 3d 6b 2b 9f 3c 78 bd a5 bc 4b 69 e8 3c
       0.068734005 0.019429883 -0.020231947 0.02837052
000060 0d 8a 74 3d eb 0c 7f 3c 25 b6 98 3c e8 a9 f1 bc
       0.059701968 0.015567045 0.01864154 -0.029499963
000070 42 f1 47 3d 7a 19 75 3c 2e 4a e1 3c f0 b0 65 bd
       0.048814066 0.014959687 0.027501192 -0.056076944
000080 d6 e9 6c bd 6f c1 27 bd 99 27 89 bd d4 d6 9e bd
       -0.05784019 -0.040955957 -0.06697006 -0.07755819
000090 6d 5d b5 bd c5 fc ce 3b 1c ae 9b bd 1b 44 2c bd
       -0.0885571 0.0063167536 -0.07601568 -0.042057138
0000a0 3b b4 d4 bc 0c 86 9f bc f2 44 4f bd 10 7b 17 bd
       -0.025964847 -0.019473098 -0.05060286 -0.036982596
0000b0 f3 20 78 3b 13 93 a2 3d 13 e5 86 bc 60 95 06 bd
       0.0037861436 0.079382084 -0.016466653 -0.0328573
0000c0 56 f7 2a bd 5b fe 01 3a f7 da 7c bd 51 a9 ba bb
       -0.041739784 0.00049588614 -0.06173226 -0.0056964536
0000d0 2d b5 dc bc 26 9b 12 bc 7b 1e c6 3c 2c b6 2a 3d
       -0.02694186 -0.008948123 0.024184456 0.04167764
0000e0 35 eb 92 bd 36 c4 10 3e d9 0a d6 bb 32 57 83 bc
       -0.071737684 0.14137349 -0.006532055 -0.016032789
0000f0 a4 2c 14 bd 47 ab b3 bb 63 5f 34 3c 14 7f 92 bc
       -0.036175385 -0.0054830643 0.01100907 -0.017882861
000100 ea 55 b3 bc cc b7 90 bd 11 cf 7a bd 65 43 ab bd
       -0.021891553 -0.070663065 -0.06123263 -0.08362464
000110 81 56 23 bb 62 e8 8f bd 80 f6 ed bc 16 26 8d bd
       -0.0024923387 -0.070267454 -0.029048204 -0.0689203
000120 8b 04 0b bd 8c 0b 26 bd c8 95 d2 bc be 3f 43 3c
       -0.03393988 -0.040538356 -0.025706187 0.011917053
000130 58 95 8c bc b3 c4 4e bd 5b 29 08 3d bd db 99 bb
       -0.017161056 -0.050480556 0.033242565 -0.0046953843
000140 52 fc 71 bd c7 d9 10 bd 06 b8 1e 3c 4e 7e b7 3c
       -0.059078522 -0.03536394 0.009687429 0.022399094
000150 1f 42 03 bd da a2 88 3d 31 a3 2c bd 06 69 7d 3c
       -0.03204548 0.066716865 -0.04214782 0.015466934
000160 6f f6 60 3d 4d 3c 06 be 68 71 e3 bc 38 fc 87 3a
       0.054922517 -0.1310894 -0.027764037 0.001037485
000170 05 e7 25 3c ea 85 45 bd 14 f7 92 bd f6 0f 7e 3b
       0.01012588 -0.048223414 -0.07176033 0.0038766838
000180 ca ec 57 3c 5c 8b 1f 3b 5a 3d 97 3a 96 8e 48 bd
       0.0131790135 0.002434454 0.001153867 -0.048964106
000190 70 37 b3 bd 07 34 7f bd d2 d8 2e bd a2 3b 8a bd
       -0.08750808 -0.062305477 -0.042687245 -0.06749655
0001a0 76 bd 5b bd 7a 31 17 bd 53 37 51 bd f5 7a b1 bb
       -0.05364748 -0.03691242 -0.051078152 -0.005416269
0001b0 e9 6c d6 3d 6b e5 55 bd fd 54 32 3c a0 b5 5f 3d
       0.10469992 -0.052220743 0.010884521 0.05461657
0001c0 a8 3b 03 bd 05 2a 8d bc 15 ba 28 bc f6 14 fb 3c
       -0.032039315 -0.01723195 -0.010298272 0.030649643
0001d0 18 52 50 bd 06 ea 92 bd 26 48 8b bc 15 62 9f bd
       -0.05085954 -0.07173543 -0.017002176 -0.077823795
0001e0 41 f2 9d bd ed 0f 4a bc 96 50 f9 bc 36 d1 8e bc
       -0.07712222 -0.012332899 -0.030433934 -0.017433744
0001f0 81 56 8d 3c 78 41 25 bd bf f2 9b ba 21 50 8c bd
       0.017253162 -0.04034564 -0.0011897905 -0.06851221
000200 4d 7f d9 3c fb a9 6b bd f5 a6 93 bd b2 2f bb 3a
       0.02654996 -0.057535153 -0.07209579 0.0014281182
000210 84 00 a6 bd 92 ae 83 bd df f1 99 3c c0 a5 25 bd
       -0.08105567 -0.06429781 0.018792091 -0.040441275
000220 fe ce 17 bc a9 f0 50 3c bc 55 58 bd 7f 2b e1 bc
       -0.009265659 0.01275269 -0.052816138 -0.02748656
000230 07 2f 47 bd d4 a8 b9 bc 2e 1a 74 bd d1 e7 07 bc
       -0.048628833 -0.022663511 -0.05959528 -0.008295015
000240 21 73 6a bd b5 59 85 bb 75 9f 03 3d 87 df 25 bc
       -0.0572387 -0.004069532 0.032134492 -0.010124094
000250 b1 7c d5 bc e5 e9 87 bd 3b 62 1b 3d 7b 3c 49 bb
       -0.026060434 -0.06636409 0.037935477 -0.0030706215
000260 6e e3 84 3c 54 e1 71 3d af df 08 3d f0 b2 07 bd
       0.016221728 0.05905278 0.033416446 -0.033129632
000270 7e b4 2a 3d a7 0c fc 3d 5d 5a 1e bd 82 b3 de 3c
       0.041676037 0.12307101 -0.038660396 0.027185205
000280 41 5e e3 3c d4 bb e3 3c 8a 1b 00 3d 26 8a 55 3c
       0.027754905 0.027799524 0.031276263 0.013033425
000290 db 21 8d bc 9f 40 51 bd 6c 73 a6 3b 66 ff 8f bc
       -0.017228058 -0.051087018 0.0050796773 -0.017577838
0002a0 08 88 2a 3c dd 9b 15 3c df 0e b7 3c a9 e4 d3 3c
       0.010408409 0.009131399 0.022345958 0.02586587
0002b0 15 68 b5 3c 96 35 c1 3b 70 0e 50 bd 4d 64 6f 3c
       0.022144357 0.0058962805 -0.05079502 0.014611316
0002c0 92 96 16 bd f4 59 5a 3d fb 72 33 bd a3 b6 99 bc
       -0.03676469 0.053308442 -0.043810826 -0.018763846
0002d0 18 22 00 3c 33 a2 68 bd 78 da 8e bd 08 b0 6d bd
       0.007820629 -0.05679531 -0.06975263 -0.058029205
0002e0 b1 05 59 bd 11 c0 77 bd 32 b8 74 3c 61 7e 6d bb
       -0.052983943 -0.060485903 0.014936494 -0.0036238658
0002f0 8c 45 8b bc 30 3d 08 bc a5 96 b3 bd be 09 37 3d
       -0.017000936 -0.0083153695 -0.087689675 0.044687025
000300 db 91 9d 3d cd ba 84 bd ac 3e 87 bd 71 e3 24 bc
       0.07693835 -0.06480942 -0.066037506 -0.010063992
000310 b3 ab a8 bd 50 c8 94 bd dd 0f 9a 3c 16 1c 8b bd
       -0.08235874 -0.07264769 0.018806392 -0.06792466
000320 0c 34 93 bd 48 f7 68 b9 2c 77 8d 3c 7e aa 27 bd
       -0.071876615 -0.00022217364 0.01726874 -0.04093408
000330 3f 57 4e bd db 6f 2d 3b 42 2a d3 3c e3 ea a3 3c
       -0.050376173 0.0026464376 0.025776986 0.020009464
000340 eb ef 36 3c b2 75 23 bd 47 61 0b 3d 92 e1 e9 ba
       0.011165599 -0.039907165 0.034028318 -0.0017843714
000350 90 35 d7 bc 0e 95 4f 3c 24 85 17 3d 67 a1 55 bd
       -0.026270658 0.012669815 0.036992207 -0.05215588
000360 0d 01 60 bd 31 98 f4 3d 2b 33 34 3d 90 dd 4e bd
       -0.054688502 0.11943091 0.04399411 -0.050504267
000370 64 69 0a bd 3e e0 13 3d 8f 49 e1 3b 26 47 7b bc
       -0.033791915 0.036102526 0.006875224 -0.015336787
000380 39 02 a8 bd b1 8d 25 bd ea 87 0c bc 60 be 95 bd
       -0.08203549 -0.04041833 -0.008577326 -0.07311702
000390 f3 fa 49 3d e4 0b 89 3c d9 bd b3 bc 97 d6 53 3c
       0.04931159 0.016729303 -0.021941112 0.01292958
0003a0 9a 86 03 3c 74 0a f3 bc ac 57 f7 3c c1 f9 4f bd
       0.008027697 -0.02966807 0.030193172 -0.050775293
0003b0 8a 2d 12 bd 7b 51 ca 3c 4a 73 9c 3c e9 ce 9b 3c
       -0.03568796 0.024697056 0.019097943 0.01901956
0003c0 4e 30 99 ba 60 72 9b bc 32 a9 e9 3d 47 da 24 bc
       -0.001168737 -0.018975437 0.114092246 -0.010061807
0003d0 3a b6 88 bd 73 d3 0e 3d 48 13 6c 3d e0 b0 8f 3c
       -0.06675382 0.034869622 0.057635576 0.017540395
0003e0 8f 4f a6 bd 80 57 26 bd 27 cc 89 bd 2b ae a5 bc
       -0.08120643 -0.04061079 -0.06728392 -0.020224651
0003f0 b7 96 3a bd a2 d0 ac 3c 48 58 88 bd f4 6d 70 bd
       -0.04555389 0.021095578 -0.06657463 -0.05869861

out.weight f4 [2, 768]
000000 fd bd af bc b9 ba 39 3c 5d a8 84 3c 6d 55 d2 bd
       -0.021452898 0.011336022 0.016193563 -0.102702
000010 8d f6 15 ba 5b ce 73 ba 97 06 85 3b d1 46 51 3e
       -0.0005720638 -0.0009300464 0.0040596235 0.2043717
000020 df ac cc bd 72 b6 56 bc 23 8e a3 3b b1 ef 3b 3d
       -0.0999391 -0.013105022 0.0049913093 0.045882884
000030 0f 6b 2e 3b e5 17 df bc 5a fc 5b 3c d3 61 36 bc
       0.0026614105 -0.027233073 0.0134268645 -0.011131722
000040 c6 65 7c bb bc c3 9d 3c 16 1c 5d 3b da 43 82 3a
       -0.003851281 0.019258372 0.0033738664 0.0009938434
000050 57 96 93 3d 22 3d 81 3d 02 20 71 3b 36 87 24 3c
       0.072064094 0.06310488 0.003679276 0.010042002
000060 e0 6e b4 bd 6a 87 d6 3d 59 25 77 bb f4 64 7d bc
       -0.0881021 0.10475047 -0.003771147 -0.015465964
000070 57 d3 05 3c aa cc f7 bb 1f 62 7e bc 68 20 b1 3d
       0.008168063 -0.0075622397 -0.015526324 0.08648759
000080 84 73 45 bc ab b2 87 bc 5b e9 88 3c bf ea 83 bc
       -0.012051467 -0.016564688 0.016712835 -0.016103147
000090 48 39 70 bc 87 0a 50 bc a8 89 3f bc 2f 57 e5 bc
       -0.014662094 -0.012697822 -0.011690535 -0.027995674
0000a0 ee b0 60 3c 38 19 37 bb d0 31 cb 3a fd dc 04 3d
       0.013714058 -0.0027938616 0.0015502516 0.032437313
0000b0 c6 95 c0 bc fe b0 d6 bd 6e f4 3c 3a 45 50 8a 3b
       -0.023508918 -0.10482977 0.0007208054 0.0042209947
0000c0 64 29 54 3d ef 2d 7d 3d 6e db 5b 3c f7 7d d9 3c
       0.051797286 0.061811384 0.013419015 0.026549323
0000d0 b6 30 d7 3b ec 57 aa 3c f7 67 55 3c 88 4f a1 3c
       0.006567086 0.020793878 0.013025275 0.019691244
0000e0 4f 54 4e 3b 4b f1 dd 3d 11 12 9d 3c a9 5c 7d 3c
       0.0031483357 0.108370386 0.019173654 0.015463986
0000f0 bc 3c 08 bd 84 3e e6 bc e2 96 b0 38 27 8f b8 3b
       -0.033261046 -0.028105982 8.420438e-05 0.0056322995
000100 e3 aa 54 bd a9 a8 11 bd dc 80 c5 bd 7c f4 e4 bc
       -0.051920783 -0.035561237 -0.096437186 -0.02794861
000110 b7 f7 ad bc f0 09 e3 bc 46 c1 8a ba 8e 89 69 bc
       -0.021236284 -0.0277147 -0.0010586164 -0.014253987
000120 45 5f 03 3a 9c 0f 66 bd e5 e7 03 3b 1f e2 92 bc
       0.00050114497 -0.05616723 0.0020127234 -0.017930089
000130 32 6c a7 3c 1e 5c a5 bb 19 73 b3 3b a1 cf e1 bb
       0.020437334 -0.0050463816 0.005476367 -0.0068912064
000140 8b 87 e5 bb 56 6a af ba 17 67 d9 3a 47 9e cb bc
       -0.0070046834 -0.0013383131 0.0016586509 -0.024855746
000150 82 7f 9b bc 27 f8 4f bb 3f c6 ae bc 90 e1 b2 bd
       -0.018981699 -0.0031733604 -0.021334765 -0.08734429
000160 15 f6 d0 3d 94 72 2f 3e 58 0a cf bb 2e 88 7e bb
       0.102031864 0.17133552 -0.0063183717 -0.0038838494
000170 d7 32 5f 3d 0d 08 47 bc a3 cb 4b bd 8a f5 02 bc
       0.054491844 -0.012147916 -0.04975475 -0.007993111
000180 67 97 95 3b d5 6c 44 3c fc 7c 6b bd 72 2f 95 bc
       0.0045651677 0.011988838 -0.05749224 -0.0182111
000190 f7 5c 80 3c 99 ae 06 bc e5 34 d2 3b ab 73 0e bb
       0.01566933 -0.008220338 0.006414997 -0.0021736424
0001a0 b9 04 84 ba 5e 63 0f bc 18 fa 26 3b d1 f8 70 3c
       -0.0010072208 -0.008751718 0.0025478657 0.01470776
0001b0 bf 64 84 3d 99 5e 1f 3c 7c b7 ae ba 75 e7 a1 3e
       0.06464528 0.009727144 -0.0013329829 0.316219
0001c0 09 7d 9a bb 53 60 62 3c 6c 0d 85 bb 4d ac 3e bc
       -0.0047146124 0.013816911 -0.004060438 -0.011637759
0001d0 e4 de dd bb 86 a8 94 3b 4d 89 8b bd 9b 4a 75 bb
       -0.0067709554 0.004536691 -0.068132974 -0.0037428502
0001e0 93 2d 58 bc 1c 44 97 3c 86 fe 3c 3c 55 fa 06 bd
       -0.0131944595 0.018465094 0.0115352925 -0.03295358
0001f0 e4 8e 81 3e c5 1a ec bc 30 e5 29 38 e5 a1 9b bc
       0.2530433 -0.028821358 4.0506187e-05 -0.018998096
000200 ac 79 9e 3b 83 99 ce bc fc 0d ab 3c e1 6f 54 bc
       0.0048362818 -0.025219684 0.020880692 -0.012966127
000210 06 13 91 3b c6 28 74 3b ae 6a d9 3b de 14 4d bb
       0.0044273166 0.0037255748 0.0066350317 -0.0031292955
000220 1c 24 a7 bc 7c 52 75 bc bb b0 9c 3c 46 f4 89 bb
       -0.02040296 -0.014973279 0.01912724 -0.004210028
000230 a5 f9 1b 3c 67 d1 6a 3c 68 b6 16 bc b9 b7 3a 3c
       0.009519969 0.014332152 -0.0091987625 0.011396342
000240 9c 44 93 bd 55 c8 c4 3a df 7f 34 bc 64 13 58 3b
       -0.071908206 0.0015013317 -0.011016815 0.0032970542
000250 f4 36 b9 bb ba 97 b3 3b d2 2b 8e bd d4 13 be ba
       -0.005652303 0.0054807337 -0.06941952 -0.0014501759
000260 c4 09 a6 3b 3a 5f 71 bc be 0d a2 bd 3a 39 3f 39
       0.005067082 -0.014732176 -0.07912777 0.00018236498
000270 dd 65 94 37 69 48 56 be 0c 27 e6 ba a7 bf 24 bc
       1.7690409e-05 -0.2092606 -0.0017559244 -0.010055459
000280 eb 58 09 bc 17 a3 6d 3a 57 27 34 bc cb 27 35 3b
       -0.008383016 0.0009065135 -0.0109957075 0.0027642127
000290 22 77 1d be eb 2d f2 3b bd 7e 97 bd 7d c0 c0 bb
       -0.15377477 0.0073907278 -0.0739722 -0.0058823214
0002a0 eb 36 80 3c fe 68 86 3a 82 93 0d bd 99 19 a9 3c
       0.015651187 0.0010254679 -0.034564503 0.020642089
0002b0 2b 77 63 3c ac 3c 8a 3b 33 61 97 3c 9b be ac 3a
       0.013883392 0.0042186584 0.018478965 0.0013179363
0002c0 1f ee 05 b9 06 25 fd 3e a7 08 82 3c e4 6d 5c bc
       -0.00012772575 0.4944231 0.015873266 -0.013453934
0002d0 fb cd c8 bc 7a 73 18 3c ea a5 10 bd 98 e7 7f 3b
       -0.024512282 0.0093048755 -0.035314478 0.0039047953
0002e0 77 b9 ce bb 49 57 1d 3e ce b5 5d 3c ef ae 1c bc
       -0.00630873 0.15365328 0.013532115 -0.009563192
0002f0 bd 07 c0 3c 59 8f 19 bc 04 31 e4 3b 44 91 b1 3c
       0.02344119 -0.009372556 0.006963851 0.021675713
000300 7e 38 54 3d 49 1b 44 3c 0a f3 48 bc 1f e4 0e 3c
       0.051811688 0.011969396 -0.012264976 0.0087213805
000310 b8 5b 4a bd 21 17 78 3c 89 27 f7 bd 1b 2f 84 bb
       -0.049403876 0.015142233 -0.120680876 -0.0040339357
000320 e9 e4 2e 3c 74 08 0b 3d 52 ef b7 bb d1 82 45 3c
       0.010674694 0.03394361 -0.005613246 0.012055115
000330 5f 7d 83 ba 64 13 b9 3c 0d f0 9f 3d fd 6d 13 3b
       -0.001003187 0.022592254 0.07809458 0.0022495978
000340 94 4e 40 3d 88 ea 9b ba 9e c4 ab bc 4b c0 5c 3b
       0.046949938 -0.0011895457 -0.020967778 0.0033683951
000350 39 f6 ed 3c 00 33 99 3c ff 68 8a 3b 34 3d d3 3b
       0.029048072 0.018701077 0.0042239423 0.006446505
000360 43 5f 40 bc f1 31 a4 3d 60 24 83 3c 4a 53 a7 3c
       -0.011741462 0.08017338 0.016008556 0.020425458
000370 5c e0 2a bc 1f c0 bf ba 18 4d 3e bc 6a 71 b4 bc
       -0.010429468 -0.00146294 -0.01161506 -0.022026736
000380 d3 dd 14 3a d7 fe b0 3c ae 1f 26 3c 67 44 17 bc
       0.00056788063 0.021605892 0.010139389 -0.009232617
000390 50 19 2f be 04 f7 72 bc ee e9 df 3b 51 d3 7b 3b
       -0.170995 -0.014829401 0.0068333065 0.0038425515
0003a0 6d 4b 96 3c 05 13 5e bd b9 1c 91 3c 33 50 2a 3c
       0.018346513 -0.054217357 0.017713891 0.010395098
0003b0 44 84 03 ba 3b 1a 40 3c d5 7b e9 3b 7f eb 0c 3d
       -0.00050169625 0.011725004 0.0071253576 0.034404274
0003c0 e6 65 5c bc 44 a1 44 bc 46 ec d2 3d b0 58 94 3c
       -0.013452029 -0.012001339 0.10298972 0.018108696
0003d0 e6 8a 1a 3b a7 6c 1b 3b f3 f0 95 bd 32 a9 4f bd
       0.0023581325 0.0023715885 -0.07321348 -0.050698467
0003e0 ed 00 a5 3b ad 88 f1 3c 97 d7 5b bc aa 8f 81 3b
       0.0050355108 0.029484117 -0.0134181 0.0039538937
0003f0 cf ba 69 bd c6 e8 e0 bc c3 2a d0 ba 23 59 80 bc
       -0.05706292 -0.027454745 -0.0015881885 -0.015667504

out.bias f4 [2]
000000 1b f0 02 bd 03 d5 2f 3d
       -0.031967264 0.042927753
